
 ==================================================================== SETUP PARAMETERS...
-------- PARSER:
-------- Hyper parameters:

 =============== Directory Setting...
+ Writing to /var/data/storage/home/phaml/01_project/09_EUCINF/11_paper_inf/12_output

+ Best model Dir: /var/data/storage/home/phaml/01_project/09_EUCINF/11_paper_inf/12_output/model

model_cnn(
  (C1_conv): Conv2d(3, 32, kernel_size=(3, 3), stride=(1, 1), padding=same)
  (C1_bn): BatchNorm2d(32, eps=1e-05, momentum=0.1, affine=True, track_running_stats=True)
  (C1_leakRelu): LeakyReLU(negative_slope=0.1)
  (C1_ReLU): ReLU()
  (C1_avepool): AvgPool2d(kernel_size=(2, 2), stride=(2, 2), padding=0)
  (C1_drop): Dropout(p=0.1, inplace=False)
  (C2_bn_01): BatchNorm2d(32, eps=1e-05, momentum=0.1, affine=True, track_running_stats=True)
  (C2_conv): Conv2d(32, 64, kernel_size=(3, 3), stride=(1, 1), padding=same)
  (C2_bn_02): BatchNorm2d(64, eps=1e-05, momentum=0.1, affine=True, track_running_stats=True)
  (C2_leakRelu): LeakyReLU(negative_slope=0.1)
  (C2_ReLU): ReLU()
  (C2_avepool): AvgPool2d(kernel_size=(2, 2), stride=(2, 2), padding=0)
  (C2_drop): Dropout(p=0.1, inplace=False)
  (C3_bn_01): BatchNorm2d(64, eps=1e-05, momentum=0.1, affine=True, track_running_stats=True)
  (C3_conv): Conv2d(64, 128, kernel_size=(3, 3), stride=(1, 1), padding=same)
  (C3_bn_02): BatchNorm2d(128, eps=1e-05, momentum=0.1, affine=True, track_running_stats=True)
  (C3_leakRelu): LeakyReLU(negative_slope=0.1)
  (C3_ReLU): ReLU()
  (C3_avepool): AvgPool2d(kernel_size=(16, 16), stride=(16, 16), padding=0)
  (C3_drop): Dropout(p=0.1, inplace=False)
  (D1_dense): Linear(in_features=128, out_features=256, bias=True)
  (D1_bn): BatchNorm1d(256, eps=1e-05, momentum=0.1, affine=True, track_running_stats=True)
  (D1_leakRelu): LeakyReLU(negative_slope=0.1)
  (D1_ReLU): ReLU()
  (D1_drop): Dropout(p=0.1, inplace=False)
  (D2_dense): Linear(in_features=256, out_features=2, bias=True)
  (D2_softmax): Softmax(dim=1)
)
XXXXXXXXXXXXXXXXXXXX: FILE LA_T_1004644_fake.npy:FAKE
XXXXXXXXXXXXXXXXXXXX: FILE LA_T_9987202_real.npy: REAL
